model/keypoint_classifier/keypoint_classifier.tflite (tflite, 6640 bytes, 6 tensors)

sequential_3/dense_9/BiasAdd/ReadVariableOp f4 [20]
0	0xbeabae2a	-0.33531314
1	0xbef0bc93	-0.4701887
2	0xbec63f03	-0.3871995
3	0xbf3787cc	-0.71691585
4	0x3df38b8c	0.11891851
5	0xbea7bef7	-0.32762882
6	0xbeefeb58	-0.4685924
7	0xbf7617bf	-0.96129984
8	0xbedb19ce	-0.42793125
9	0xbd6f5ebe	-0.058439963
10	0xbdc0054c	-0.0937601
11	0xbe649aac	-0.22324628
12	0xbf87e07f	-1.0615386
13	0xbf650991	-0.8946772
14	0xbefa3d85	-0.4887506
15	0xbf063dcd	-0.5243805
16	0xbf2c9811	-0.67419535
17	0xbedf3ea2	-0.43602473
18	0xbef80750	-0.4844308
19	0xbe3f2290	-0.18665528

sequential_3/dense_11/BiasAdd/ReadVariableOp f4 [5]
0	0xbe3e2fbb	-0.18572895
1	0xbe31ef8c	-0.17376536
2	0x3f09ffbc	0.53905845
3	0x3e71c46d	0.23610087
4	0xbf1644f8	-0.5869899

sequential_3/dense_10/BiasAdd/ReadVariableOp f4 [10]
0	0xbd591665	-0.052999873
1	0x3f2e4e37	0.68088096
2	0x3ea6702c	0.32507455
3	0x3d65338a	0.055957355
4	0x3f3a5c8c	0.72797465
5	0xbf29a383	-0.66265124
6	0xbef9f160	-0.48816967
7	0xbec92c08	-0.39291406
8	0x3c936c1c	0.017995887
9	0x3e3bcccd	0.18339844

sequential_3/dense_9/MatMul f4 [20, 42]
0	0x3dda92d8	0.106725395
1	0x3e0b2a14	0.1359027
2	0x3cc88185	0.024475822
3	0x3dc4a85f	0.09602427
4	0xbe3a69c7	-0.18204413
5	0x3e30bdf6	0.17259964
6	0xbee886c4	-0.45415318
7	0x3e174b7c	0.14774889
8	0xbecfae86	-0.40562838
9	0x3e5d1346	0.21589383
10	0x3e442c67	0.19157563
11	0x3e7d8421	0.24757434
12	0x3d1b0742	0.03784872
13	0x3da74e54	0.08169237
14	0xbb037eac	-0.0020064516
15	0xbc890aa1	-0.016728701
16	0xbb8cbb2a	-0.0042947726
17	0xbd4390d5	-0.047745544
18	0x3da87c80	0.082268715
19	0x3e4e7021	0.20159961
20	0xbc9efc83	-0.019407516
21	0x3d1edbb5	0.038783748
22	0x3e590b74	0.21195775
23	0xbde172f5	-0.110082544
24	0x3ed17ccf	0.40915534
25	0xbe8162dd	-0.2527074
26	0xbc9ea2c9	-0.019364731
27	0x3e5b96d0	0.21444249
28	0xbd6bd967	-0.057580378
29	0x3b5302c1	0.0032197686
30	0x3eb6eae4	0.35726082
31	0xbedb8d73	-0.42881355
32	0x3f172eb2	0.59055626
33	0xbf361f5d	-0.71141607
34	0xbd9bdb07	-0.076101355
35	0x3e9596d2	0.2921663
36	0xbe2a5780	-0.16634941
37	0x3e07c60b	0.13259141
38	0xbd83ebc8	-0.06441456
39	0xbe2fe727	-0.17178021
40	0x3e9f6cb6	0.31137627
41	0xbe81b1d3	-0.25330982
42	0x3de9096c	0.1137875
43	0xbd54dad8	-0.05196652
44	0xbddabd89	-0.10680682
45	0xbdf39f5f	-0.11895632
46	0xbe8fae04	-0.2806245
47	0xbe9d66c5	-0.3074247
48	0xbed16013	-0.4089361
49	0xbec0acd4	-0.37631857
50	0xbf03dcbc	-0.5150869
51	0xbf025ebd	-0.5092581
52	0xbd41a2dc	-0.047274455
53	0x3e930dbd	0.2872142
54	0x3d13f072	0.03611798
55	0x3df4f0b3	0.11959972
56	0x3c8d35b4	0.017237522
57	0x3d345855	0.044029552
58	0x3c2dfb66	0.01061902
59	0xbcb7fef5	-0.02246044
60	0xbdc38584	-0.095469505
61	0x3e9e13b0	0.30874395
62	0x3d204393	0.039126944
63	0xbda30dd5	-0.079616226
64	0x3e8a7370	0.27041197
65	0xbd549313	-0.051898073
66	0x3ea7ad82	0.32749563
67	0x3e081099	0.13287582
68	0xbe2a7af4	-0.16648465
69	0x3eb7213e	0.3576755
70	0x3d8ec022	0.0697024
71	0xbddd4bde	-0.10805486
72	0x3e96be80	0.29442215
73	0x3e00f84c	0.12594718
74	0x3ec14a49	0.37751988
75	0x3f262adb	0.6490914
76	0xbe59a3ae	-0.21253845
77	0x3e56d4f6	0.20979676
78	0x3c11a227	0.008888758
79	0xbe528bb4	-0.20561105
80	0x3e6fc381	0.23414423
81	0x3d8bbb83	0.068228744
82	0x3f295762	0.6614896
83	0x3eca987b	0.39569458
84	0x3c5ea480	0.013589025
85	0x3e5f4c5c	0.21806473
86	0xbd62ea25	-0.05539908
87	0x3eec4cb3	0.46152267
88	0x3ca0b662	0.019618217
89	0x3e8d0255	0.27540842
90	0x3d877364	0.06613806
91	0x3e612fce	0.21990892
92	0x3df17e69	0.11791689
93	0x3e2fbdff	0.17162322
94	0xbbe8fd33	-0.007110262
95	0xbc9e71ec	-0.019341432
96	0xbda4e6b0	-0.08051813
97	0x3cea0306	0.028565895
98	0xbd3dd469	-0.04634515
99	0x3cd72f5a	0.026267696
100	0x3c0c1b97	0.0085515
101	0xbc558e84	-0.013034467
102	0x3a5251a5	0.000802303
103	0xbc32e08e	-0.010917796
104	0xbd211b6d	-0.039332796
105	0x3d886aa1	0.06660963
106	0xbd9f81fd	-0.07788465
107	0xbda2e622	-0.079540506
108	0x3e8b9efe	0.2726974
109	0xbefc19fe	-0.4923858
110	0x3e3b1d13	0.1827281
111	0x3dcf98f0	0.101365924
112	0x3b684d4e	0.0035446468
113	0x3dba4391	0.090949185
114	0xbe6d67d3	-0.23184137
115	0xbead3da7	-0.338361
116	0xbe88fd0a	-0.26755553
117	0xbf5b6ac5	-0.8570979
118	0x3ea4bbf1	0.32174638
119	0x3e213858	0.1574415
120	0x3d962c69	0.07332689
121	0x3e157b40	0.14597797
122	0xbe7943da	-0.2434229
123	0xbd90813f	-0.07055902
124	0xbe984861	-0.2974272
125	0xbeb2fa8d	-0.3495678
126	0xbe6f472c	-0.23366994
127	0x3e038b34	0.1284607
128	0x3f3e55af	0.7434949
129	0xbedf1738	-0.43572402
130	0x3edeca99	0.43513945
131	0xbe4663dc	-0.19374031
132	0x3e819386	0.25307864
133	0xbe10081c	-0.14065593
134	0x3e45ec38	0.19328392
135	0xbed8195c	-0.42206848
136	0x3e62d69e	0.22152182
137	0x3e3662ce	0.17811128
138	0x3c4e575f	0.012594073
139	0x3db9e4e4	0.090768605
140	0xbe514dae	-0.20439789
141	0x3e33a80c	0.17544574
142	0xbe6e380e	-0.2326357
143	0x3e2a3a9c	0.1662392
144	0x3e892f76	0.26794022
145	0x3e14f88c	0.14547938
146	0x3d9905d8	0.07471818
147	0xbdac57af	-0.08415162
148	0xbde5f181	-0.11227704
149	0x3dafefd3	0.08590665
150	0xbe1eacdf	-0.15495633
151	0x3dba03a4	0.09082726
152	0x3edfdede	0.43724722
153	0xbc7c32e3	-0.015392992
154	0x3e058979	0.13040723
155	0xbddb73db	-0.10715457
156	0xbd61cf4a	-0.055129327
157	0x3d466a72	0.048441358
158	0xbdef3f0f	-0.11681949
159	0x3d82884b	0.06373652
160	0x3f00d59d	0.5032595
161	0xbe675089	-0.22589315
162	0x3ea329a8	0.3186772
163	0xbe886d62	-0.26645952
164	0x3e0f249b	0.13978808
165	0xbd957269	-0.07297213
166	0x3c8ed939	0.017437564
167	0x3c2a3cb9	0.010390454
168	0x3e5dbe30	0.21654582
169	0xbe56608a	-0.20935264
170	0x3efaa4ac	0.4895376
171	0x3f313f16	0.69236887
172	0x3e81eef1	0.2537761
173	0x3e4140cf	0.18872379
174	0x3e81ce62	0.2535277
175	0x3dfc3252	0.12314285
176	0x3ea733ce	0.3265671
177	0x3e215892	0.15756443
178	0xbe84a650	-0.25908136
179	0x3e1f230e	0.15540716
180	0xbdae4886	-0.085099265
181	0x3db8ac8f	0.09017288
182	0xbe2d39e2	-0.16916612
183	0xbed097dd	-0.40740862
184	0xbe860120	-0.26172733
185	0xbf72b32f	-0.9480466
186	0xbda74be1	-0.0816877
187	0x3e1b655a	0.15175381
188	0x3c803380	0.015649557
189	0x3df27f1e	0.11840652
190	0xbcc773bb	-0.024347177
191	0x3e170b10	0.14750314
192	0xbe6a6d57	-0.22893272
193	0x3ca3d1c3	0.019997483
194	0x3d1c6a82	0.03818751
195	0x3e16485a	0.14676037
196	0xbc95b81e	-0.01827627
197	0x3e151939	0.14560403
198	0xbe8b0910	-0.27155352
199	0x3de2760e	0.110576734
200	0xbec4f0cd	-0.38464966
201	0x3d62e598	0.05539474
202	0x3e7d6ad1	0.24747778
203	0x3e511c6a	0.20420995
204	0x3dd89891	0.10575975
205	0x3e513d23	0.20433478
206	0xbe8e6c5d	-0.2781705
207	0x3e07cb7c	0.13261217
208	0xbf0aa2c3	-0.54154605
209	0x3dd6a249	0.10480172
210	0xbddf8ff6	-0.1091613
211	0xbe948974	-0.29011118
212	0x3f4b4865	0.7940734
213	0xbf657c8e	-0.8964318
214	0x3f414c4a	0.7550703
215	0xbf13b8b0	-0.57703686
216	0x3f3b1180	0.7307358
217	0xbf217784	-0.6307299
218	0x3f11c66c	0.5694339
219	0xbec8baca	-0.3920501
220	0x3ed93713	0.4242483
221	0xbf12100a	-0.57055724
222	0x3db56c0d	0.088585
223	0xbe5fda55	-0.21860631
224	0xbe9166e0	-0.283988
225	0xbbf3fcc5	-0.007445904
226	0xbedad478	-0.42740226
227	0x3e1b8112	0.15185955
228	0x3e9513db	0.2911671
229	0xbeb96382	-0.3620873
230	0x3e74578c	0.23861521
231	0xbe0bacf8	-0.13640201
232	0x3e2f9dcd	0.1715004
233	0x3d313bad	0.043269802
234	0x3e56422f	0.20923685
235	0x3d3c5814	0.045982435
236	0x3e8dfa46	0.27730006
237	0xbea979f5	-0.33100858
238	0x3d4d5121	0.0501262
239	0xbc90b9cd	-0.017666722
240	0x3de57d50	0.11205542
241	0x3e0fff97	0.14062344
242	0x3dbd88cf	0.0925461
243	0x3de7a547	0.11310821
244	0x3df6092f	0.120134704
245	0xbe5de21b	-0.21668284
246	0x3e89d437	0.2691972
247	0x3d9a9242	0.07547428
248	0xbd96830b	-0.07349213
249	0x3e3a8dbc	0.1821813
250	0xbda13bb1	-0.07872713
251	0x3e40048a	0.18751732
252	0x3c2e3d00	0.010634661
253	0x3e99f29c	0.3006791
254	0xbe57d367	-0.21076737
255	0x3e78cfa7	0.24297963

sequential_3/dense_10/MatMul f4 [10, 20]
0	0x3ee4a0c1	0.44653895
1	0xbe5cfb99	-0.21580352
2	0x3f53c78a	0.8272635
3	0xbddebd03	-0.10875895
4	0x3f05638f	0.5210504
5	0x3d3d95d2	0.046285458
6	0x3e72f839	0.23727502
7	0x3f56c7cb	0.8389861
8	0x3f7be0a2	0.9838964
9	0x3e536e6d	0.20647593
10	0xbea1eae5	-0.31624523
11	0x3f04bb75	0.51848537
12	0x3f61ef14	0.8825543
13	0x3f23a997	0.6393065
14	0x3e7f9f6a	0.24963155
15	0x3d8dc8b0	0.06923044
16	0x3f468dbc	0.7756002
17	0x3f51152f	0.8167295
18	0x3f619cac	0.8812969
19	0x3e6757a0	0.2259202
20	0xbd8333fa	-0.06406398
21	0xbd1a8011	-0.03771979
22	0xbd08f61d	-0.033437837
23	0xbee9aa4a	-0.45637733
24	0x3f8efa22	1.1170084
25	0x3f10bced	0.5653828
26	0x3f25f189	0.6482168
27	0xbf0bb01a	-0.54565585
28	0xbd313f61	-0.043273333
29	0x3f82ad4f	1.020914
30	0x3ed3c695	0.41362444
31	0x3e771ba7	0.24131642
32	0xbf0c4907	-0.5479893
33	0xbf0b504a	-0.54419386
34	0x3f50ed6f	0.81612295
35	0x3f2895a5	0.6585334
36	0x3cbaf2f7	0.022820933
37	0x3e37d224	0.17951256
38	0x3eee82be	0.46584123
39	0x3f06db5b	0.5267846
40	0xbaa51240	-0.001259394
41	0xbd8e9cc1	-0.06963492
42	0x3dc6e2f1	0.097112544
43	0x3f5915af	0.8479871
44	0xbd9b6783	-0.07588103
45	0xbe6a3733	-0.2287262
46	0x3f113e19	0.5673538
47	0x3f271b9a	0.6527649
48	0x3e107857	0.14108406
49	0xbea84ebe	-0.32872576
50	0xbd9a78f7	-0.075426035
51	0xbe0acc25	-0.13554437
52	0x3f80be3b	1.0058054
53	0x3f69bb61	0.9130154
54	0xbe773002	-0.24139407
55	0x3f0b0814	0.543092
56	0x3ed9e51f	0.42557618
57	0x3ea6829f	0.3252153
58	0x3b8d346b	0.004309227
59	0x3d124727	0.035712387
60	0x3eded1b0	0.43519354
61	0x3ead1820	0.33807468
62	0x3f274970	0.6534643
63	0xbf269062	-0.6506406
64	0xbda4d85b	-0.08049079
65	0xbc9be521	-0.019030156
66	0xbd566ba1	-0.052348737
67	0xbe8f2492	-0.27957588
68	0x3f07ae8c	0.5300071
69	0x3e5ca621	0.21547748
70	0xbe4a086f	-0.1972978
71	0x3ea76c28	0.32699704
72	0xbe903a11	-0.281693
73	0x3e0de22c	0.13855809
74	0x3ee6c7ab	0.4507421
75	0x3ca445d8	0.020052835
76	0x3f3ae639	0.7300754
77	0x3eda0d71	0.4258838
78	0x3f54ae78	0.8307872
79	0x3eae5ac5	0.34053627
80	0xbf5a5485	-0.85285217
81	0xbf06393b	-0.52431077
82	0xbf86fbd2	-1.05456
83	0x3c98791a	0.018612433
84	0xbd7dd37d	-0.06196927
85	0x3e9e630c	0.30934942
86	0x3eba0b87	0.3633692
87	0x3f12e418	0.57379293
88	0xbf6f7b71	-0.9354773
89	0x3eb083e0	0.34475613
90	0xbe7747d1	-0.2414849
91	0x3eb321af	0.34986636
92	0x3ee85eb8	0.45384765
93	0x3e0ca10d	0.13733311
94	0xbebfd144	-0.37464345
95	0x3ed5cd8f	0.4175839
96	0xbf29641f	-0.661684
97	0xbf1c34ab	-0.61017865
98	0xbf27c744	-0.6553843
99	0x3e7c34be	0.24629495
100	0x3cec90a0	0.028877556
101	0x3ebfc516	0.37455052
102	0xbd84b0b6	-0.064790174
103	0x3f8fd1d5	1.1235911
104	0xbd54d342	-0.051959284
105	0x3f742e77	0.953834
106	0xbd694e20	-0.05695927
107	0xbed4be19	-0.41551283
108	0xbe1ee51b	-0.15517084
109	0xbede0b7d	-0.4336814
110	0x3d20ef56	0.03929075
111	0xbeac9190	-0.33704805
112	0xbd80029f	-0.062505
113	0x3db59659	0.08866567
114	0x3d8a69f4	0.0675849
115	0xbe643a49	-0.22287859
116	0xbe2fb944	-0.17160517
117	0xbdeee98b	-0.116656385
118	0x3db8db04	0.09026149
119	0xbe5f231c	-0.21790737
120	0x3f1a5c89	0.6029745
121	0x3f322fa9	0.69603974
122	0xbe1ef12e	-0.1552169
123	0x3e3a974c	0.18221778
124	0x3eaefcea	0.34177333
125	0x3eb05c90	0.3444562
126	0x3d9d00b5	0.076661505
127	0x3f232e52	0.63742554
128	0xbd3f9451	-0.046772305
129	0x3c5607af	0.013063355
130	0xbf2da0bb	-0.6782338
131	0xbe68d3e3	-0.22737078
132	0x3e0f5ac8	0.13999474
133	0xbecc65e6	-0.39921492
134	0x3edaea52	0.42756897
135	0xba5267d9	-0.0008026339
136	0xbdb85c2a	-0.09001954
137	0xbc181946	-0.009283369
138	0x3f5d3cf6	0.86421144
139	0x3f273776	0.65319
140	0xbe441806	-0.19149789
141	0x3f6f672b	0.93516797
142	0x3e05d1da	0.13068333
143	0xbdea04f3	-0.11426725
144	0xbf10dc4e	-0.5658616
145	0x3eab7afb	0.33492264
146	0x3d20bed6	0.039244495
147	0x3e2e1a09	0.17002119
148	0x3dfb5194	0.12271419
149	0x3d836fc7	0.06417804
150	0x3f753093	0.95777243
151	0x3e070016	0.13183627
152	0xbe4ab496	-0.1979545
153	0xbd96a9d9	-0.073566146
154	0x3db5c4ba	0.08875413
155	0x3e3d953e	0.18513963
156	0x3e36b2a7	0.17841588
157	0x3a8b4bf8	0.0010627499
158	0x3d51949f	0.051167127
159	0xbf1ec825	-0.62024146
160	0x3f1d756a	0.61507285
161	0xbf3f6e89	-0.7477804
162	0x3eb2e8df	0.34943292
163	0xbf62b735	-0.885608
164	0xbe9dddb6	-0.30833215
165	0xbe18dd77	-0.14928232
166	0xbf2fa0ad	-0.68604547
167	0xbdc66cfa	-0.096887544
168	0x3ea1c5a0	0.31596088
169	0xbf43fbac	-0.76555896
170	0xbf083db1	-0.53219134
171	0xbdbeedad	-0.09322677
172	0xbee6876a	-0.45025188
173	0x3e5f63c8	0.21815407
174	0xbdcfb4b3	-0.101418875
175	0xbf0b29a5	-0.5436042
176	0x3ec4b7a1	0.38421348
177	0x3f0db218	0.55349874
178	0xbe3f64e8	-0.18690836
179	0xbd1d66a4	-0.038427964
180	0x3e558fcd	0.20855637
181	0xbe47a2b1	-0.19495656
182	0xbbe2bc2e	-0.0069194054
183	0x3e76d626	0.24105129
184	0x3eacc482	0.33743674
185	0x3dac6970	0.08418548
186	0x3eebc588	0.46049142
187	0x3ae28744	0.0017282744
188	0xbd24cab2	-0.040232368
189	0x3f3c7ebe	0.73630893
190	0xbe3a040b	-0.18165605
191	0x3f89c9b1	1.0764676
192	0x3fa52cd3	1.2904304
193	0x3d59d862	0.053184874
194	0xbe6a4676	-0.22878441
195	0x3f150bd7	0.5822119
196	0x3d8f27df	0.06990027
197	0x3e329c8b	0.17442529
198	0x3ee663cd	0.44998017
199	0x3f4bd8d5	0.79627734

sequential_3/dense_11/MatMul f4 [5, 10]
0	0x3efc293b	0.49250206
1	0x3f18b268	0.59647226
2	0xbf1b6a22	-0.6070882
3	0x3f4c7b2c	0.79875445
4	0xbf6a471a	-0.9151474
5	0xbf8672e9	-1.0503818
6	0x3f76e8bd	0.9644888
7	0x3f541b66	0.82854307
8	0xbdf36b2c	-0.11885676
9	0x3d8bc484	0.06824592
10	0x3f2b96d4	0.6702702
11	0xbddabec6	-0.106809184
12	0x3f8f8a8d	1.1214157
13	0xbee3d59a	-0.44498903
14	0xbd45ddf3	-0.04830737
15	0xbc1269de	-0.0089363735
16	0x3f219951	0.6312457
17	0x3dd5bb1e	0.104360804
18	0xbf7c1319	-0.9846664
19	0x3f2f7458	0.685369
20	0xbf05f377	-0.5232462
21	0x3f8334b0	1.0250454
22	0xbe6afa3f	-0.22947024
23	0xbf72f5f6	-0.94906557
24	0x3f5fbf0f	0.8740091
25	0xbf83704e	-1.0268648
26	0xbf8eb454	-1.1148782
27	0xbf873d94	-1.0565667
28	0x3f2e15d8	0.6800208
29	0x3e6aa6a6	0.22915134
30	0x3ecdd495	0.4020125
31	0xbf8cdec9	-1.1005489
32	0x3f108f64	0.56468797
33	0x3ed2f609	0.41203335
34	0xbfa4dbe2	-1.2879603
35	0xc00ae2df	-2.170097
36	0xbef38f06	-0.47570056
37	0xbf496212	-0.7866527
38	0x3f6a9d35	0.9164613
39	0xbfb0b467	-1.3805054
40	0xbf945d38	-1.1590948
41	0xbf5ffb96	-0.87493265
42	0x3ebf997f	0.37421796
43	0xbf000386	-0.50005376
44	0xbf36ef6c	-0.7145908
45	0x3f03cdca	0.51485884
46	0x3f3152c0	0.6926689
47	0x3f5e53af	0.8684644
48	0xbe0ff36a	-0.14057699
49	0xbf2dca73	-0.6788704
